…
I0222 03:23:59.304358 16200 solver.cpp:61] Creating training net from train_net file: /nfs.yoda/xiaolonw/fast_rcnn/fast-rcnn-hha/scripts/pre_gan_scratch2/train.prototxt
I0222 03:23:59.306332 16200 net.cpp:42] Initializing net from parameters: 
name: "CaffeNet"
state {
  phase: TRAIN
}
layer {
  name: "data"
  type: "Python"
  top: "data"
  top: "rois"
  top: "labels"
  top: "bbox_targets"
  top: "bbox_loss_weights"
  python_param {
    module: "roi_data_layer.layer_pi"
    layer: "RoIDataLayerPi"
    param_str: "--num_classes 20 --num_data 1"
  }
}
layer {
  name: "da_conv1"
  type: "Convolution"
  bottom: "data"
  top: "da_conv1"
  param {
    lr_mult: 1
    decay_mult: 1
  }
  param {
    lr_mult: 2
    decay_mult: 0
  }
  convolution_param {
    num_output: 64
    pad: 2
    kernel_size: 5
    stride: 2
    weight_filler {
      type: "gaussian"
      std: 0.01
    }
    bias_filler {
      type: "constant"
      value: 0
    }
  }
}
layer {
  name: "da_relu1"
  type: "ReLU"
  bottom: "da_conv1"
  top: "da_conv1"
  relu_param {
    negative_slope: 0.2
  }
}
layer {
  name: "da_pool1"
  type: "Pooling"
  bottom: "da_conv1"
  top: "da_pool1"
  pooling_param {
    pool: MAX
    kernel_size: 3
    stride: 2
    pad: 0
  }
}
layer {
  name: "da_conv2"
  type: "Convolution"
  bottom: "da_pool1"
  top: "da_conv2"
  param {
    lr_mult: 1
    decay_mult: 1
  }
  param {
    lr_mult: 2
    decay_mult: 0
  }
  convolution_param {
    num_output: 128
    pad: 2
    kernel_size: 5
    stride: 2
    weight_filler {
      type: "gaussian"
      std: 0.01
    }
    bias_filler {
      type: "constant"
      value: 1
    }
  }
}
layer {
  name: "da_relu2"
  type: "ReLU"
  bottom: "da_conv2"
  top: "da_conv2"
  relu_param {
    negative_slope: 0.2
  }
}
layer {
  name: "da_pool2"
  type: "Pooling"
  bottom: "da_conv2"
  top: "da_pool2"
  pooling_param {
    pool: MAX
    kernel_size: 3
    stride: 2
    pad: 0
  }
}
layer {
  name: "da_conv3"
  type: "Convolution"
  bottom: "da_pool2"
  top: "da_conv3"
  param {
    lr_mult: 1
    decay_mult: 1
  }
  param {
    lr_mult: 2
    decay_mult: 0
  }
  convolution_param {
    num_output: 256
    pad: 1
    kernel_size: 3
    stride: 1
    weight_filler {
      type: "gaussian"
      std: 0.01
    }
    bias_filler {
      type: "constant"
      value: 0
    }
  }
}
layer {
  name: "da_relu3"
  type: "ReLU"
  bottom: "da_conv3"
  top: "da_conv3"
  relu_param {
    negative_slope: 0.2
  }
}
layer {
  name: "da_conv4"
  type: "Convolution"
  bottom: "da_conv3"
  top: "da_conv4"
  param {
    lr_mult: 1
    decay_mult: 1
  }
  param {
    lr_mult: 2
    decay_mult: 0
  }
  convolution_param {
    num_output: 512
    pad: 1
    kernel_size: 3
    stride: 1
    weight_filler {
      type: "gaussian"
      std: 0.01
    }
    bias_filler {
      type: "constant"
      value: 1
    }
  }
}
layer {
  name: "da_relu4"
  type: "ReLU"
  bottom: "da_conv4"
  top: "da_conv4"
  relu_param {
    negative_slope: 0.2
  }
}
layer {
  name: "da_conv5"
  type: "Convolution"
  bottom: "da_conv4"
  top: "da_conv5"
  param {
    lr_mult: 1
    decay_mult: 1
  }
  param {
    lr_mult: 2
    decay_mult: 0
  }
  convolution_param {
    num_output: 128
    pad: 1
    kernel_size: 3
    stride: 1
    weight_filler {
      type: "gaussian"
      std: 0.01
    }
    bias_filler {
      type: "constant"
      value: 1
    }
  }
}
layer {
  name: "da_relu5"
  type: "ReLU"
  bottom: "da_conv5"
  top: "da_conv5"
  relu_param {
    negative_slope: 0.2
  }
}
layer {
  name: "da_roi_pool5"
  type: "ROIPooling"
  bottom: "da_conv5"
  bottom: "rois"
  top: "da_pool5"
  roi_pooling_param {
    pooled_h: 6
    pooled_w: 6
    spatial_scale: 0.0625
  }
}
layer {
  name: "da_fc6"
  type: "InnerProduct"
  bottom: "da_pool5"
  top: "da_fc6"
  param {
    lr_mult: 1
    decay_mult: 1
  }
  param {
    lr_mult: 2
    decay_mult: 0
  }
  inner_product_param {
    num_output: 4096
    weight_filler {
      type: "gaussian"
      std: 0.005
    }
    bias_filler {
      type: "constant"
      value: 1
    }
  }
}
layer {
  name: "da_relu6"
  type: "ReLU"
  bottom: "da_fc6"
  top: "da_fc6"
}
layer {
  name: "da_drop6"
  type: "Dropout"
  bottom: "da_fc6"
  top: "da_fc6"
  dropout_param {
    dropout_ratio: 0.5
  }
}
layer {
  name: "da_fc7"
  type: "InnerProduct"
  bottom: "da_fc6"
  top: "da_fc7"
  param {
    lr_mult: 1
    decay_mult: 1
  }
  param {
    lr_mult: 2
    decay_mult: 0
  }
  inner_product_param {
    num_output: 4096
    weight_filler {
      type: "gaussian"
      std: 0.005
    }
    bias_filler {
      type: "constant"
      value: 1
    }
  }
}
layer {
  name: "da_relu7"
  type: "ReLU"
  bottom: "da_fc7"
  top: "da_fc7"
}
layer {
  name: "da_drop7"
  type: "Dropout"
  bottom: "da_fc7"
  top: "da_fc7"
  dropout_param {
    dropout_ratio: 0.5
  }
}
layer {
  name: "da_cls_score"
  type: "InnerProduct"
  bottom: "da_fc7"
  top: "cls_score_1"
  param {
    lr_mult: 1
    decay_mult: 1
  }
  param {
    lr_mult: 2
    decay_mult: 0
  }
  inner_product_param {
    num_output: 20
    weight_filler {
      type: "gaussian"
      std: 0.01
    }
    bias_filler {
      type: "constant"
      value: 0
    }
  }
}
layer {
  name: "da_bbox_pred"
  type: "InnerProduct"
  bottom: "da_fc7"
  top: "bbox_pred_1"
  param {
    lr_mult: 1
    decay_mult: 1
  }
  param {
    lr_mult: 2
    decay_mult: 0
  }
  inner_product_param {
    num_output: 80
    weight_filler {
      type: "gaussian"
      std: 0.001
    }
    bias_filler {
      type: "constant"
      value: 0
    }
  }
}
layer {
  name: "da_loss_cls"
  type: "SoftmaxWithLoss"
  bottom: "cls_score_1"
  bottom: "labels"
  top: "da_loss_cls"
  loss_weight: 0.5
}
layer {
  name: "da_loss_bbox"
  type: "SmoothL1Loss"
  bottom: "bbox_pred_1"
  bottom: "bbox_targets"
  bottom: "bbox_loss_weights"
  top: "da_loss_bbox"
  loss_weight: 0.5
}
I0222 03:23:59.306565 16200 layer_factory.hpp:74] Creating layer data
I0222 03:23:59.308743 16200 net.cpp:84] Creating Layer data
I0222 03:23:59.308773 16200 net.cpp:338] data -> data
I0222 03:23:59.308799 16200 net.cpp:338] data -> rois
I0222 03:23:59.308814 16200 net.cpp:338] data -> labels
I0222 03:23:59.308831 16200 net.cpp:338] data -> bbox_targets
I0222 03:23:59.308850 16200 net.cpp:338] data -> bbox_loss_weights
I0222 03:23:59.308866 16200 net.cpp:113] Setting up data
I0222 03:23:59.309840 16200 net.cpp:120] Top shape: 1 6 100 100 (60000)
I0222 03:23:59.309859 16200 net.cpp:120] Top shape: 1 5 (5)
I0222 03:23:59.309869 16200 net.cpp:120] Top shape: 1 (1)
I0222 03:23:59.309877 16200 net.cpp:120] Top shape: 1 80 (80)
I0222 03:23:59.309886 16200 net.cpp:120] Top shape: 1 80 (80)
I0222 03:23:59.309898 16200 layer_factory.hpp:74] Creating layer da_conv1
I0222 03:23:59.309923 16200 net.cpp:84] Creating Layer da_conv1
I0222 03:23:59.309933 16200 net.cpp:380] da_conv1 <- data
I0222 03:23:59.309947 16200 net.cpp:338] da_conv1 -> da_conv1
I0222 03:23:59.309964 16200 net.cpp:113] Setting up da_conv1
I0222 03:23:59.310221 16200 net.cpp:120] Top shape: 1 64 50 50 (160000)
I0222 03:23:59.310248 16200 layer_factory.hpp:74] Creating layer da_relu1
I0222 03:23:59.310269 16200 net.cpp:84] Creating Layer da_relu1
I0222 03:23:59.310278 16200 net.cpp:380] da_relu1 <- da_conv1
I0222 03:23:59.310291 16200 net.cpp:327] da_relu1 -> da_conv1 (in-place)
I0222 03:23:59.310304 16200 net.cpp:113] Setting up da_relu1
I0222 03:23:59.310320 16200 net.cpp:120] Top shape: 1 64 50 50 (160000)
I0222 03:23:59.310328 16200 layer_factory.hpp:74] Creating layer da_pool1
I0222 03:23:59.310341 16200 net.cpp:84] Creating Layer da_pool1
I0222 03:23:59.310349 16200 net.cpp:380] da_pool1 <- da_conv1
I0222 03:23:59.310362 16200 net.cpp:338] da_pool1 -> da_pool1
I0222 03:23:59.310376 16200 net.cpp:113] Setting up da_pool1
I0222 03:23:59.310398 16200 net.cpp:120] Top shape: 1 64 25 25 (40000)
I0222 03:23:59.310408 16200 layer_factory.hpp:74] Creating layer da_conv2
I0222 03:23:59.310425 16200 net.cpp:84] Creating Layer da_conv2
I0222 03:23:59.310432 16200 net.cpp:380] da_conv2 <- da_pool1
I0222 03:23:59.310447 16200 net.cpp:338] da_conv2 -> da_conv2
I0222 03:23:59.310462 16200 net.cpp:113] Setting up da_conv2
I0222 03:23:59.315006 16200 net.cpp:120] Top shape: 1 128 13 13 (21632)
I0222 03:23:59.315049 16200 layer_factory.hpp:74] Creating layer da_relu2
I0222 03:23:59.315076 16200 net.cpp:84] Creating Layer da_relu2
I0222 03:23:59.315089 16200 net.cpp:380] da_relu2 <- da_conv2
I0222 03:23:59.315107 16200 net.cpp:327] da_relu2 -> da_conv2 (in-place)
I0222 03:23:59.315124 16200 net.cpp:113] Setting up da_relu2
I0222 03:23:59.315138 16200 net.cpp:120] Top shape: 1 128 13 13 (21632)
I0222 03:23:59.315147 16200 layer_factory.hpp:74] Creating layer da_pool2
I0222 03:23:59.315165 16200 net.cpp:84] Creating Layer da_pool2
I0222 03:23:59.315173 16200 net.cpp:380] da_pool2 <- da_conv2
I0222 03:23:59.315187 16200 net.cpp:338] da_pool2 -> da_pool2
I0222 03:23:59.315206 16200 net.cpp:113] Setting up da_pool2
I0222 03:23:59.315227 16200 net.cpp:120] Top shape: 1 128 6 6 (4608)
I0222 03:23:59.315238 16200 layer_factory.hpp:74] Creating layer da_conv3
I0222 03:23:59.315256 16200 net.cpp:84] Creating Layer da_conv3
I0222 03:23:59.315265 16200 net.cpp:380] da_conv3 <- da_pool2
I0222 03:23:59.315279 16200 net.cpp:338] da_conv3 -> da_conv3
I0222 03:23:59.315296 16200 net.cpp:113] Setting up da_conv3
I0222 03:23:59.321941 16200 net.cpp:120] Top shape: 1 256 6 6 (9216)
I0222 03:23:59.321986 16200 layer_factory.hpp:74] Creating layer da_relu3
I0222 03:23:59.322007 16200 net.cpp:84] Creating Layer da_relu3
I0222 03:23:59.322019 16200 net.cpp:380] da_relu3 <- da_conv3
I0222 03:23:59.322036 16200 net.cpp:327] da_relu3 -> da_conv3 (in-place)
I0222 03:23:59.322062 16200 net.cpp:113] Setting up da_relu3
I0222 03:23:59.322077 16200 net.cpp:120] Top shape: 1 256 6 6 (9216)
I0222 03:23:59.322085 16200 layer_factory.hpp:74] Creating layer da_conv4
I0222 03:23:59.322101 16200 net.cpp:84] Creating Layer da_conv4
I0222 03:23:59.322110 16200 net.cpp:380] da_conv4 <- da_conv3
I0222 03:23:59.322127 16200 net.cpp:338] da_conv4 -> da_conv4
I0222 03:23:59.322144 16200 net.cpp:113] Setting up da_conv4
I0222 03:23:59.348379 16200 net.cpp:120] Top shape: 1 512 6 6 (18432)
I0222 03:23:59.348417 16200 layer_factory.hpp:74] Creating layer da_relu4
I0222 03:23:59.348433 16200 net.cpp:84] Creating Layer da_relu4
I0222 03:23:59.348441 16200 net.cpp:380] da_relu4 <- da_conv4
I0222 03:23:59.348459 16200 net.cpp:327] da_relu4 -> da_conv4 (in-place)
I0222 03:23:59.348475 16200 net.cpp:113] Setting up da_relu4
I0222 03:23:59.348489 16200 net.cpp:120] Top shape: 1 512 6 6 (18432)
I0222 03:23:59.348497 16200 layer_factory.hpp:74] Creating layer da_conv5
I0222 03:23:59.348515 16200 net.cpp:84] Creating Layer da_conv5
I0222 03:23:59.348522 16200 net.cpp:380] da_conv5 <- da_conv4
I0222 03:23:59.348537 16200 net.cpp:338] da_conv5 -> da_conv5
I0222 03:23:59.348552 16200 net.cpp:113] Setting up da_conv5
I0222 03:23:59.361373 16200 net.cpp:120] Top shape: 1 128 6 6 (4608)
I0222 03:23:59.361420 16200 layer_factory.hpp:74] Creating layer da_relu5
I0222 03:23:59.361438 16200 net.cpp:84] Creating Layer da_relu5
I0222 03:23:59.361446 16200 net.cpp:380] da_relu5 <- da_conv5
I0222 03:23:59.361461 16200 net.cpp:327] da_relu5 -> da_conv5 (in-place)
I0222 03:23:59.361481 16200 net.cpp:113] Setting up da_relu5
I0222 03:23:59.361495 16200 net.cpp:120] Top shape: 1 128 6 6 (4608)
I0222 03:23:59.361505 16200 layer_factory.hpp:74] Creating layer da_roi_pool5
I0222 03:23:59.361526 16200 net.cpp:84] Creating Layer da_roi_pool5
I0222 03:23:59.361534 16200 net.cpp:380] da_roi_pool5 <- da_conv5
I0222 03:23:59.361546 16200 net.cpp:380] da_roi_pool5 <- rois
I0222 03:23:59.361560 16200 net.cpp:338] da_roi_pool5 -> da_pool5
I0222 03:23:59.361577 16200 net.cpp:113] Setting up da_roi_pool5
I0222 03:23:59.361588 16200 roi_pooling_layer.cpp:30] Spatial scale: 0.0625
I0222 03:23:59.361620 16200 net.cpp:120] Top shape: 1 128 6 6 (4608)
I0222 03:23:59.361629 16200 layer_factory.hpp:74] Creating layer da_fc6
I0222 03:23:59.361649 16200 net.cpp:84] Creating Layer da_fc6
I0222 03:23:59.361659 16200 net.cpp:380] da_fc6 <- da_pool5
I0222 03:23:59.361675 16200 net.cpp:338] da_fc6 -> da_fc6
I0222 03:23:59.361692 16200 net.cpp:113] Setting up da_fc6
I0222 03:23:59.926074 16200 net.cpp:120] Top shape: 1 4096 (4096)
I0222 03:23:59.926116 16200 layer_factory.hpp:74] Creating layer da_relu6
I0222 03:23:59.926139 16200 net.cpp:84] Creating Layer da_relu6
I0222 03:23:59.926152 16200 net.cpp:380] da_relu6 <- da_fc6
I0222 03:23:59.926172 16200 net.cpp:327] da_relu6 -> da_fc6 (in-place)
I0222 03:23:59.926192 16200 net.cpp:113] Setting up da_relu6
I0222 03:23:59.926208 16200 net.cpp:120] Top shape: 1 4096 (4096)
I0222 03:23:59.926218 16200 layer_factory.hpp:74] Creating layer da_drop6
I0222 03:23:59.926244 16200 net.cpp:84] Creating Layer da_drop6
I0222 03:23:59.926256 16200 net.cpp:380] da_drop6 <- da_fc6
I0222 03:23:59.926272 16200 net.cpp:327] da_drop6 -> da_fc6 (in-place)
I0222 03:23:59.926306 16200 net.cpp:113] Setting up da_drop6
I0222 03:23:59.926329 16200 net.cpp:120] Top shape: 1 4096 (4096)
I0222 03:23:59.926342 16200 layer_factory.hpp:74] Creating layer da_fc7
I0222 03:23:59.926360 16200 net.cpp:84] Creating Layer da_fc7
I0222 03:23:59.926372 16200 net.cpp:380] da_fc7 <- da_fc6
I0222 03:23:59.926388 16200 net.cpp:338] da_fc7 -> da_fc7
I0222 03:23:59.926409 16200 net.cpp:113] Setting up da_fc7
I0222 03:24:00.412938 16200 net.cpp:120] Top shape: 1 4096 (4096)
I0222 03:24:00.412971 16200 layer_factory.hpp:74] Creating layer da_relu7
I0222 03:24:00.412984 16200 net.cpp:84] Creating Layer da_relu7
I0222 03:24:00.412991 16200 net.cpp:380] da_relu7 <- da_fc7
I0222 03:24:00.412999 16200 net.cpp:327] da_relu7 -> da_fc7 (in-place)
I0222 03:24:00.413009 16200 net.cpp:113] Setting up da_relu7
I0222 03:24:00.413018 16200 net.cpp:120] Top shape: 1 4096 (4096)
I0222 03:24:00.413022 16200 layer_factory.hpp:74] Creating layer da_drop7
I0222 03:24:00.413030 16200 net.cpp:84] Creating Layer da_drop7
I0222 03:24:00.413034 16200 net.cpp:380] da_drop7 <- da_fc7
I0222 03:24:00.413040 16200 net.cpp:327] da_drop7 -> da_fc7 (in-place)
I0222 03:24:00.413048 16200 net.cpp:113] Setting up da_drop7
I0222 03:24:00.413054 16200 net.cpp:120] Top shape: 1 4096 (4096)
I0222 03:24:00.413060 16200 layer_factory.hpp:74] Creating layer da_fc7_da_drop7_0_split
I0222 03:24:00.413069 16200 net.cpp:84] Creating Layer da_fc7_da_drop7_0_split
I0222 03:24:00.413074 16200 net.cpp:380] da_fc7_da_drop7_0_split <- da_fc7
I0222 03:24:00.413080 16200 net.cpp:338] da_fc7_da_drop7_0_split -> da_fc7_da_drop7_0_split_0
I0222 03:24:00.413089 16200 net.cpp:338] da_fc7_da_drop7_0_split -> da_fc7_da_drop7_0_split_1
I0222 03:24:00.413100 16200 net.cpp:113] Setting up da_fc7_da_drop7_0_split
I0222 03:24:00.413106 16200 net.cpp:120] Top shape: 1 4096 (4096)
I0222 03:24:00.413113 16200 net.cpp:120] Top shape: 1 4096 (4096)
I0222 03:24:00.413117 16200 layer_factory.hpp:74] Creating layer da_cls_score
I0222 03:24:00.413126 16200 net.cpp:84] Creating Layer da_cls_score
I0222 03:24:00.413132 16200 net.cpp:380] da_cls_score <- da_fc7_da_drop7_0_split_0
I0222 03:24:00.413141 16200 net.cpp:338] da_cls_score -> cls_score_1
I0222 03:24:00.413148 16200 net.cpp:113] Setting up da_cls_score
I0222 03:24:00.415088 16200 net.cpp:120] Top shape: 1 20 (20)
I0222 03:24:00.415107 16200 layer_factory.hpp:74] Creating layer da_bbox_pred
I0222 03:24:00.415122 16200 net.cpp:84] Creating Layer da_bbox_pred
I0222 03:24:00.415132 16200 net.cpp:380] da_bbox_pred <- da_fc7_da_drop7_0_split_1
I0222 03:24:00.415145 16200 net.cpp:338] da_bbox_pred -> bbox_pred_1
I0222 03:24:00.415159 16200 net.cpp:113] Setting up da_bbox_pred
I0222 03:24:00.422862 16200 net.cpp:120] Top shape: 1 80 (80)
I0222 03:24:00.422899 16200 layer_factory.hpp:74] Creating layer da_loss_cls
I0222 03:24:00.422922 16200 net.cpp:84] Creating Layer da_loss_cls
I0222 03:24:00.422930 16200 net.cpp:380] da_loss_cls <- cls_score_1
I0222 03:24:00.422938 16200 net.cpp:380] da_loss_cls <- labels
I0222 03:24:00.422947 16200 net.cpp:338] da_loss_cls -> da_loss_cls
I0222 03:24:00.422960 16200 net.cpp:113] Setting up da_loss_cls
…
