…
I0222 03:23:49.319743 16180 solver.cpp:61] Creating training net from train_net file: /nfs.yoda/xiaolonw/fast_rcnn/fast-rcnn-hha/scripts/pre_alexnet_scratch2/train.prototxt
I0222 03:23:49.321535 16180 net.cpp:42] Initializing net from parameters: 
name: "CaffeNet"
state {
  phase: TRAIN
}
layer {
  name: "data"
  type: "Python"
  top: "data"
  top: "rois"
  top: "labels"
  top: "bbox_targets"
  top: "bbox_loss_weights"
  python_param {
    module: "roi_data_layer.layer_pi"
    layer: "RoIDataLayerPi"
    param_str: "--num_classes 20 --num_data 1"
  }
}
layer {
  name: "da_conv1"
  type: "Convolution"
  bottom: "data"
  top: "da_conv1"
  param {
    lr_mult: 1
    decay_mult: 1
  }
  param {
    lr_mult: 2
    decay_mult: 0
  }
  convolution_param {
    num_output: 96
    pad: 7
    kernel_size: 11
    stride: 4
    weight_filler {
      type: "gaussian"
      std: 0.01
    }
    bias_filler {
      type: "constant"
      value: 0
    }
  }
}
layer {
  name: "da_relu1"
  type: "ReLU"
  bottom: "da_conv1"
  top: "da_conv1"
  relu_param {
    negative_slope: 0.2
  }
}
layer {
  name: "da_pool1"
  type: "Pooling"
  bottom: "da_conv1"
  top: "da_pool1"
  pooling_param {
    pool: MAX
    kernel_size: 3
    stride: 2
    pad: 0
  }
}
layer {
  name: "da_conv2"
  type: "Convolution"
  bottom: "da_pool1"
  top: "da_conv2"
  param {
    lr_mult: 1
    decay_mult: 1
  }
  param {
    lr_mult: 2
    decay_mult: 0
  }
  convolution_param {
    num_output: 256
    pad: 2
    kernel_size: 5
    stride: 1
    weight_filler {
      type: "gaussian"
      std: 0.01
    }
    bias_filler {
      type: "constant"
      value: 1
    }
  }
}
layer {
  name: "da_relu2"
  type: "ReLU"
  bottom: "da_conv2"
  top: "da_conv2"
  relu_param {
    negative_slope: 0.2
  }
}
layer {
  name: "da_pool2"
  type: "Pooling"
  bottom: "da_conv2"
  top: "da_pool2"
  pooling_param {
    pool: MAX
    kernel_size: 3
    stride: 2
    pad: 0
  }
}
layer {
  name: "da_conv3"
  type: "Convolution"
  bottom: "da_pool2"
  top: "da_conv3"
  param {
    lr_mult: 1
    decay_mult: 1
  }
  param {
    lr_mult: 2
    decay_mult: 0
  }
  convolution_param {
    num_output: 384
    pad: 1
    kernel_size: 3
    stride: 1
    weight_filler {
      type: "gaussian"
      std: 0.01
    }
    bias_filler {
      type: "constant"
      value: 0
    }
  }
}
layer {
  name: "da_relu3"
  type: "ReLU"
  bottom: "da_conv3"
  top: "da_conv3"
  relu_param {
    negative_slope: 0.2
  }
}
layer {
  name: "da_conv4"
  type: "Convolution"
  bottom: "da_conv3"
  top: "da_conv4"
  param {
    lr_mult: 1
    decay_mult: 1
  }
  param {
    lr_mult: 2
    decay_mult: 0
  }
  convolution_param {
    num_output: 384
    pad: 1
    kernel_size: 3
    stride: 1
    weight_filler {
      type: "gaussian"
      std: 0.01
    }
    bias_filler {
      type: "constant"
      value: 1
    }
  }
}
layer {
  name: "da_relu4"
  type: "ReLU"
  bottom: "da_conv4"
  top: "da_conv4"
  relu_param {
    negative_slope: 0.2
  }
}
layer {
  name: "da_conv5"
  type: "Convolution"
  bottom: "da_conv4"
  top: "da_conv5"
  param {
    lr_mult: 1
    decay_mult: 1
  }
  param {
    lr_mult: 2
    decay_mult: 0
  }
  convolution_param {
    num_output: 256
    pad: 1
    kernel_size: 3
    stride: 1
    weight_filler {
      type: "gaussian"
      std: 0.01
    }
    bias_filler {
      type: "constant"
      value: 1
    }
  }
}
layer {
  name: "da_relu5"
  type: "ReLU"
  bottom: "da_conv5"
  top: "da_conv5"
  relu_param {
    negative_slope: 0.2
  }
}
layer {
  name: "da_roi_pool5"
  type: "ROIPooling"
  bottom: "da_conv5"
  bottom: "rois"
  top: "da_pool5"
  roi_pooling_param {
    pooled_h: 6
    pooled_w: 6
    spatial_scale: 0.0625
  }
}
layer {
  name: "da_fc6"
  type: "InnerProduct"
  bottom: "da_pool5"
  top: "da_fc6"
  param {
    lr_mult: 1
    decay_mult: 1
  }
  param {
    lr_mult: 2
    decay_mult: 0
  }
  inner_product_param {
    num_output: 4096
    weight_filler {
      type: "gaussian"
      std: 0.005
    }
    bias_filler {
      type: "constant"
      value: 1
    }
  }
}
layer {
  name: "da_relu6"
  type: "ReLU"
  bottom: "da_fc6"
  top: "da_fc6"
}
layer {
  name: "da_drop6"
  type: "Dropout"
  bottom: "da_fc6"
  top: "da_fc6"
  dropout_param {
    dropout_ratio: 0.5
  }
}
layer {
  name: "da_fc7"
  type: "InnerProduct"
  bottom: "da_fc6"
  top: "da_fc7"
  param {
    lr_mult: 1
    decay_mult: 1
  }
  param {
    lr_mult: 2
    decay_mult: 0
  }
  inner_product_param {
    num_output: 4096
    weight_filler {
      type: "gaussian"
      std: 0.005
    }
    bias_filler {
      type: "constant"
      value: 1
    }
  }
}
layer {
  name: "da_relu7"
  type: "ReLU"
  bottom: "da_fc7"
  top: "da_fc7"
}
layer {
  name: "da_drop7"
  type: "Dropout"
  bottom: "da_fc7"
  top: "da_fc7"
  dropout_param {
    dropout_ratio: 0.5
  }
}
layer {
  name: "da_cls_score"
  type: "InnerProduct"
  bottom: "da_fc7"
  top: "cls_score_1"
  param {
    lr_mult: 1
    decay_mult: 1
  }
  param {
    lr_mult: 2
    decay_mult: 0
  }
  inner_product_param {
    num_output: 20
    weight_filler {
      type: "gaussian"
      std: 0.01
    }
    bias_filler {
      type: "constant"
      value: 0
    }
  }
}
layer {
  name: "da_bbox_pred"
  type: "InnerProduct"
  bottom: "da_fc7"
  top: "bbox_pred_1"
  param {
    lr_mult: 1
    decay_mult: 1
  }
  param {
    lr_mult: 2
    decay_mult: 0
  }
  inner_product_param {
    num_output: 80
    weight_filler {
      type: "gaussian"
      std: 0.001
    }
    bias_filler {
      type: "constant"
      value: 0
    }
  }
}
layer {
  name: "da_loss_cls"
  type: "SoftmaxWithLoss"
  bottom: "cls_score_1"
  bottom: "labels"
  top: "da_loss_cls"
  loss_weight: 0.5
}
layer {
  name: "da_loss_bbox"
  type: "SmoothL1Loss"
  bottom: "bbox_pred_1"
  bottom: "bbox_targets"
  bottom: "bbox_loss_weights"
  top: "da_loss_bbox"
  loss_weight: 0.5
}
I0222 03:23:49.321771 16180 layer_factory.hpp:74] Creating layer data
I0222 03:23:49.324429 16180 net.cpp:84] Creating Layer data
I0222 03:23:49.324460 16180 net.cpp:338] data -> data
I0222 03:23:49.324483 16180 net.cpp:338] data -> rois
I0222 03:23:49.324502 16180 net.cpp:338] data -> labels
I0222 03:23:49.324520 16180 net.cpp:338] data -> bbox_targets
I0222 03:23:49.324534 16180 net.cpp:338] data -> bbox_loss_weights
I0222 03:23:49.324548 16180 net.cpp:113] Setting up data
I0222 03:23:49.325490 16180 net.cpp:120] Top shape: 1 6 100 100 (60000)
I0222 03:23:49.325506 16180 net.cpp:120] Top shape: 1 5 (5)
I0222 03:23:49.325515 16180 net.cpp:120] Top shape: 1 (1)
I0222 03:23:49.325525 16180 net.cpp:120] Top shape: 1 80 (80)
I0222 03:23:49.325536 16180 net.cpp:120] Top shape: 1 80 (80)
I0222 03:23:49.325549 16180 layer_factory.hpp:74] Creating layer da_conv1
I0222 03:23:49.325575 16180 net.cpp:84] Creating Layer da_conv1
I0222 03:23:49.325584 16180 net.cpp:380] da_conv1 <- data
I0222 03:23:49.325600 16180 net.cpp:338] da_conv1 -> da_conv1
I0222 03:23:49.325618 16180 net.cpp:113] Setting up da_conv1
I0222 03:23:49.327244 16180 net.cpp:120] Top shape: 1 96 26 26 (64896)
I0222 03:23:49.327276 16180 layer_factory.hpp:74] Creating layer da_relu1
I0222 03:23:49.327296 16180 net.cpp:84] Creating Layer da_relu1
I0222 03:23:49.327306 16180 net.cpp:380] da_relu1 <- da_conv1
I0222 03:23:49.327321 16180 net.cpp:327] da_relu1 -> da_conv1 (in-place)
I0222 03:23:49.327334 16180 net.cpp:113] Setting up da_relu1
I0222 03:23:49.327350 16180 net.cpp:120] Top shape: 1 96 26 26 (64896)
I0222 03:23:49.327359 16180 layer_factory.hpp:74] Creating layer da_pool1
I0222 03:23:49.327375 16180 net.cpp:84] Creating Layer da_pool1
I0222 03:23:49.327383 16180 net.cpp:380] da_pool1 <- da_conv1
I0222 03:23:49.327396 16180 net.cpp:338] da_pool1 -> da_pool1
I0222 03:23:49.327411 16180 net.cpp:113] Setting up da_pool1
I0222 03:23:49.327435 16180 net.cpp:120] Top shape: 1 96 13 13 (16224)
I0222 03:23:49.327443 16180 layer_factory.hpp:74] Creating layer da_conv2
I0222 03:23:49.327461 16180 net.cpp:84] Creating Layer da_conv2
I0222 03:23:49.327469 16180 net.cpp:380] da_conv2 <- da_pool1
I0222 03:23:49.327484 16180 net.cpp:338] da_conv2 -> da_conv2
I0222 03:23:49.327498 16180 net.cpp:113] Setting up da_conv2
I0222 03:23:49.340982 16180 net.cpp:120] Top shape: 1 256 13 13 (43264)
I0222 03:23:49.341030 16180 layer_factory.hpp:74] Creating layer da_relu2
I0222 03:23:49.341048 16180 net.cpp:84] Creating Layer da_relu2
I0222 03:23:49.341058 16180 net.cpp:380] da_relu2 <- da_conv2
I0222 03:23:49.341070 16180 net.cpp:327] da_relu2 -> da_conv2 (in-place)
I0222 03:23:49.341095 16180 net.cpp:113] Setting up da_relu2
I0222 03:23:49.341109 16180 net.cpp:120] Top shape: 1 256 13 13 (43264)
I0222 03:23:49.341114 16180 layer_factory.hpp:74] Creating layer da_pool2
I0222 03:23:49.341125 16180 net.cpp:84] Creating Layer da_pool2
I0222 03:23:49.341128 16180 net.cpp:380] da_pool2 <- da_conv2
I0222 03:23:49.341135 16180 net.cpp:338] da_pool2 -> da_pool2
I0222 03:23:49.341146 16180 net.cpp:113] Setting up da_pool2
I0222 03:23:49.341158 16180 net.cpp:120] Top shape: 1 256 6 6 (9216)
I0222 03:23:49.341162 16180 layer_factory.hpp:74] Creating layer da_conv3
I0222 03:23:49.341174 16180 net.cpp:84] Creating Layer da_conv3
I0222 03:23:49.341178 16180 net.cpp:380] da_conv3 <- da_pool2
I0222 03:23:49.341184 16180 net.cpp:338] da_conv3 -> da_conv3
I0222 03:23:49.341192 16180 net.cpp:113] Setting up da_conv3
I0222 03:23:49.360980 16180 net.cpp:120] Top shape: 1 384 6 6 (13824)
I0222 03:23:49.361033 16180 layer_factory.hpp:74] Creating layer da_relu3
I0222 03:23:49.361057 16180 net.cpp:84] Creating Layer da_relu3
I0222 03:23:49.361065 16180 net.cpp:380] da_relu3 <- da_conv3
I0222 03:23:49.361088 16180 net.cpp:327] da_relu3 -> da_conv3 (in-place)
I0222 03:23:49.361107 16180 net.cpp:113] Setting up da_relu3
I0222 03:23:49.361121 16180 net.cpp:120] Top shape: 1 384 6 6 (13824)
I0222 03:23:49.361131 16180 layer_factory.hpp:74] Creating layer da_conv4
I0222 03:23:49.361152 16180 net.cpp:84] Creating Layer da_conv4
I0222 03:23:49.361161 16180 net.cpp:380] da_conv4 <- da_conv3
I0222 03:23:49.361176 16180 net.cpp:338] da_conv4 -> da_conv4
I0222 03:23:49.361194 16180 net.cpp:113] Setting up da_conv4
I0222 03:23:49.390427 16180 net.cpp:120] Top shape: 1 384 6 6 (13824)
I0222 03:23:49.390463 16180 layer_factory.hpp:74] Creating layer da_relu4
I0222 03:23:49.390480 16180 net.cpp:84] Creating Layer da_relu4
I0222 03:23:49.390488 16180 net.cpp:380] da_relu4 <- da_conv4
I0222 03:23:49.390504 16180 net.cpp:327] da_relu4 -> da_conv4 (in-place)
I0222 03:23:49.390522 16180 net.cpp:113] Setting up da_relu4
I0222 03:23:49.390535 16180 net.cpp:120] Top shape: 1 384 6 6 (13824)
I0222 03:23:49.390544 16180 layer_factory.hpp:74] Creating layer da_conv5
I0222 03:23:49.390563 16180 net.cpp:84] Creating Layer da_conv5
I0222 03:23:49.390571 16180 net.cpp:380] da_conv5 <- da_conv4
I0222 03:23:49.390585 16180 net.cpp:338] da_conv5 -> da_conv5
I0222 03:23:49.390601 16180 net.cpp:113] Setting up da_conv5
I0222 03:23:49.409906 16180 net.cpp:120] Top shape: 1 256 6 6 (9216)
I0222 03:23:49.409945 16180 layer_factory.hpp:74] Creating layer da_relu5
I0222 03:23:49.409963 16180 net.cpp:84] Creating Layer da_relu5
I0222 03:23:49.409975 16180 net.cpp:380] da_relu5 <- da_conv5
I0222 03:23:49.409991 16180 net.cpp:327] da_relu5 -> da_conv5 (in-place)
I0222 03:23:49.410009 16180 net.cpp:113] Setting up da_relu5
I0222 03:23:49.410022 16180 net.cpp:120] Top shape: 1 256 6 6 (9216)
I0222 03:23:49.410032 16180 layer_factory.hpp:74] Creating layer da_roi_pool5
I0222 03:23:49.410051 16180 net.cpp:84] Creating Layer da_roi_pool5
I0222 03:23:49.410060 16180 net.cpp:380] da_roi_pool5 <- da_conv5
I0222 03:23:49.410076 16180 net.cpp:380] da_roi_pool5 <- rois
I0222 03:23:49.410092 16180 net.cpp:338] da_roi_pool5 -> da_pool5
I0222 03:23:49.410109 16180 net.cpp:113] Setting up da_roi_pool5
I0222 03:23:49.410120 16180 roi_pooling_layer.cpp:30] Spatial scale: 0.0625
I0222 03:23:49.410147 16180 net.cpp:120] Top shape: 1 256 6 6 (9216)
I0222 03:23:49.410156 16180 layer_factory.hpp:74] Creating layer da_fc6
I0222 03:23:49.410176 16180 net.cpp:84] Creating Layer da_fc6
I0222 03:23:49.410186 16180 net.cpp:380] da_fc6 <- da_pool5
I0222 03:23:49.410199 16180 net.cpp:338] da_fc6 -> da_fc6
I0222 03:23:49.410215 16180 net.cpp:113] Setting up da_fc6
I0222 03:23:50.269825 16180 net.cpp:120] Top shape: 1 4096 (4096)
I0222 03:23:50.269860 16180 layer_factory.hpp:74] Creating layer da_relu6
I0222 03:23:50.269876 16180 net.cpp:84] Creating Layer da_relu6
I0222 03:23:50.269886 16180 net.cpp:380] da_relu6 <- da_fc6
I0222 03:23:50.269904 16180 net.cpp:327] da_relu6 -> da_fc6 (in-place)
I0222 03:23:50.269922 16180 net.cpp:113] Setting up da_relu6
I0222 03:23:50.269933 16180 net.cpp:120] Top shape: 1 4096 (4096)
I0222 03:23:50.269942 16180 layer_factory.hpp:74] Creating layer da_drop6
I0222 03:23:50.269968 16180 net.cpp:84] Creating Layer da_drop6
I0222 03:23:50.269978 16180 net.cpp:380] da_drop6 <- da_fc6
I0222 03:23:50.269990 16180 net.cpp:327] da_drop6 -> da_fc6 (in-place)
I0222 03:23:50.270004 16180 net.cpp:113] Setting up da_drop6
I0222 03:23:50.270021 16180 net.cpp:120] Top shape: 1 4096 (4096)
I0222 03:23:50.270030 16180 layer_factory.hpp:74] Creating layer da_fc7
I0222 03:23:50.270046 16180 net.cpp:84] Creating Layer da_fc7
I0222 03:23:50.270056 16180 net.cpp:380] da_fc7 <- da_fc6
I0222 03:23:50.270071 16180 net.cpp:338] da_fc7 -> da_fc7
I0222 03:23:50.270092 16180 net.cpp:113] Setting up da_fc7
I0222 03:23:50.617283 16180 net.cpp:120] Top shape: 1 4096 (4096)
I0222 03:23:50.617314 16180 layer_factory.hpp:74] Creating layer da_relu7
I0222 03:23:50.617332 16180 net.cpp:84] Creating Layer da_relu7
I0222 03:23:50.617341 16180 net.cpp:380] da_relu7 <- da_fc7
I0222 03:23:50.617357 16180 net.cpp:327] da_relu7 -> da_fc7 (in-place)
I0222 03:23:50.617374 16180 net.cpp:113] Setting up da_relu7
I0222 03:23:50.617386 16180 net.cpp:120] Top shape: 1 4096 (4096)
I0222 03:23:50.617395 16180 layer_factory.hpp:74] Creating layer da_drop7
I0222 03:23:50.617411 16180 net.cpp:84] Creating Layer da_drop7
I0222 03:23:50.617419 16180 net.cpp:380] da_drop7 <- da_fc7
I0222 03:23:50.617432 16180 net.cpp:327] da_drop7 -> da_fc7 (in-place)
I0222 03:23:50.617445 16180 net.cpp:113] Setting up da_drop7
I0222 03:23:50.617461 16180 net.cpp:120] Top shape: 1 4096 (4096)
I0222 03:23:50.617470 16180 layer_factory.hpp:74] Creating layer da_fc7_da_drop7_0_split
I0222 03:23:50.617487 16180 net.cpp:84] Creating Layer da_fc7_da_drop7_0_split
I0222 03:23:50.617496 16180 net.cpp:380] da_fc7_da_drop7_0_split <- da_fc7
I0222 03:23:50.617509 16180 net.cpp:338] da_fc7_da_drop7_0_split -> da_fc7_da_drop7_0_split_0
I0222 03:23:50.617524 16180 net.cpp:338] da_fc7_da_drop7_0_split -> da_fc7_da_drop7_0_split_1
I0222 03:23:50.617542 16180 net.cpp:113] Setting up da_fc7_da_drop7_0_split
I0222 03:23:50.617557 16180 net.cpp:120] Top shape: 1 4096 (4096)
I0222 03:23:50.617568 16180 net.cpp:120] Top shape: 1 4096 (4096)
I0222 03:23:50.617578 16180 layer_factory.hpp:74] Creating layer da_cls_score
I0222 03:23:50.617595 16180 net.cpp:84] Creating Layer da_cls_score
I0222 03:23:50.617604 16180 net.cpp:380] da_cls_score <- da_fc7_da_drop7_0_split_0
I0222 03:23:50.617619 16180 net.cpp:338] da_cls_score -> cls_score_1
I0222 03:23:50.617633 16180 net.cpp:113] Setting up da_cls_score
I0222 03:23:50.619386 16180 net.cpp:120] Top shape: 1 20 (20)
I0222 03:23:50.619405 16180 layer_factory.hpp:74] Creating layer da_bbox_pred
I0222 03:23:50.619418 16180 net.cpp:84] Creating Layer da_bbox_pred
I0222 03:23:50.619427 16180 net.cpp:380] da_bbox_pred <- da_fc7_da_drop7_0_split_1
I0222 03:23:50.619442 16180 net.cpp:338] da_bbox_pred -> bbox_pred_1
I0222 03:23:50.619458 16180 net.cpp:113] Setting up da_bbox_pred
I0222 03:23:50.626622 16180 net.cpp:120] Top shape: 1 80 (80)
I0222 03:23:50.626667 16180 layer_factory.hpp:74] Creating layer da_loss_cls
I0222 03:23:50.626695 16180 net.cpp:84] Creating Layer da_loss_cls
I0222 03:23:50.626706 16180 net.cpp:380] da_loss_cls <- cls_score_1
I0222 03:23:50.626723 16180 net.cpp:380] da_loss_cls <- labels
I0222 03:23:50.626737 16180 net.cpp:338] da_loss_cls -> da_loss_cls
I0222 03:23:50.626756 16180 net.cpp:113] Setting up da_loss_cls
…
